dm-pytorch/c1/models.model.ckpt (torch, 10431 bytes, 5 tensors)

layers.0.weight f4 [16, 117]
0	0xbd1d6ae0	-0.038432002
1	0x3d1197ae	0.035545044
2	0xbcbcb588	-0.02303578
3	0xbdb523a7	-0.08844691
4	0x3db5e0f6	0.088807985
5	0x3daca971	0.08430756
6	0x3c762e1f	0.015025645
7	0xbca7faa0	-0.02050525
8	0x3dadee45	0.08492712
9	0x3db22764	0.086989194
10	0x3d9d965e	0.07694696
11	0xbcd940fe	-0.026520249
12	0x3cf61af0	0.030042142
13	0xbd4d62f5	-0.0501432
14	0x3d96ac0c	0.07357034
15	0x3cddeed2	0.027091417
16	0x3d58f72b	0.052970093
17	0x3d0d6137	0.03451654
18	0xbd726d73	-0.05918641
19	0x3d9c3818	0.076278865
20	0xbd60e0bd	-0.054901827
21	0xbc5b9957	-0.013403258
22	0xbd904709	-0.07044799
23	0xba70dd36	-0.00091882364
24	0x3ce8c91b	0.028416207
25	0x3d8cafea	0.068694904
26	0x3cf8605b	0.030319383
27	0xbd3e8731	-0.046515647
28	0x3d33e7c6	0.04392221
29	0xbd9948db	-0.07484599
30	0x3d0aeb37	0.033915725
31	0xbc89a879	-0.016803967
32	0xbcc25501	-0.023722174
33	0xbd003a0f	-0.03130537
34	0x3d9bae05	0.07601551
35	0x3d006af1	0.031351987
36	0x3dba9f4c	0.09112415
37	0xbbdb1326	-0.0066856323
38	0x3d975933	0.0739006
39	0x3d1e59d0	0.03865987
40	0x3dbc3019	0.091888614
41	0xbc05c476	-0.008164516
42	0xbdab20ea	-0.08355887
43	0x3cc7f42c	0.024408422
44	0xbc41d08b	-0.011829506
45	0x3cde37b1	0.027126165
46	0x3d95ff04	0.07324031
47	0xbaad8817	-0.001323941
48	0xbd7272ee	-0.059191637
49	0xbcecac8f	-0.028890876
50	0x3daa4e14	0.083156735
51	0x3d71800a	0.05896
52	0x3d9927e8	0.07478315
53	0xbd95441e	-0.07288383
54	0xbd2296a5	-0.039694447
55	0x3d071a5d	0.032984126
56	0x3c805fb8	0.015670642
57	0x3d961b60	0.0732944
58	0xbbb95d66	-0.005656886
59	0x3d882e97	0.06649511
60	0xbcad1a60	-0.02113074
61	0xbcf0e425	-0.029405663
62	0xbd29aa4f	-0.041422185
63	0x3d4003f8	0.046878785
64	0xbd90b511	-0.07065786
65	0xbd793667	-0.060842898
66	0xbd3af2aa	-0.04564158
67	0xbc5bc1d5	-0.013412912
68	0xbd28766a	-0.041128553
69	0x3a7315f7	0.00092729874
70	0x3d50790e	0.050896697
71	0x3b772ee7	0.0037717165
72	0xbd3455f1	-0.044027273
73	0x3c9dbb4f	0.019254355
74	0xbcd0b8c4	-0.025478728
75	0x3d2597bf	0.04042792
76	0x3c9f3f40	0.01943934
77	0x3c8c3f98	0.017120168
78	0xbdb63454	-0.088966995
79	0x3d6febcd	0.058574487
80	0x3c271c3c	0.010199603
81	0xbb5d47a6	-0.003376463
82	0xbcd674b0	-0.026178688
83	0xbc8e6565	-0.017382333
84	0x3c84fb8b	0.016233226
85	0xbd052ba4	-0.032512322
86	0xbc457221	-0.012051136
87	0xbc9a2189	-0.018814819
88	0x3d986551	0.074411996
89	0x3da2bd63	0.07946279
90	0x3dbc6010	0.0919801
91	0xbd394504	-0.045231834
92	0x3ca4b101	0.020103933
93	0x3d5e4954	0.05426915
94	0xbc9059a4	-0.017620869
95	0x3db3ea60	0.08784938
96	0xbd74e0dd	-0.05978476
97	0x3cc6f394	0.024286069
98	0xbd5f68b0	-0.054543197
99	0x3d73710a	0.059433974
100	0xbd5589d2	-0.05213339
101	0x3aaca567	0.0013171852
102	0x3d9c56b9	0.076337285
103	0x3dbc7837	0.09202617
104	0xbc40c83b	-0.011766489
105	0xbda35528	-0.07975227
106	0xbd18fbe4	-0.037349597
107	0x3d916b35	0.07100526
108	0x3d849c68	0.064751446
109	0x3db123ac	0.08649382
110	0x3cb9b09b	0.02266722
111	0x3d9062e3	0.07050111
112	0xbdb72cf9	-0.08944125
113	0x3da28f2e	0.079374656
114	0xbd232966	-0.039834403
115	0xbd026887	-0.031837966
116	0xbcae3395	-0.02126483
117	0xbd5e0757	-0.05420622
118	0x3c984303	0.018586641
119	0x39018bad	0.00012354432
120	0x3d563834	0.052299693
121	0x3cc7e3f8	0.024400696
122	0x3d350152	0.044190712
123	0x3c062ab6	0.008188894
124	0xbda23ec1	-0.079221256
125	0x3d1e067e	0.03858041
126	0xbd9f6f88	-0.07784945
127	0xbcf5aec6	-0.029990565
128	0xbd26dbb1	-0.040736858
129	0x3abdb400	0.00144732
130	0x3cee33f8	0.029077515
131	0xbda254c3	-0.07926323
132	0x3cbdeebb	0.023185125
133	0xbd0f9559	-0.03505454
134	0x3d9a4005	0.07531742
135	0xbd07dae1	-0.033167724
136	0x3daa98a9	0.08329899
137	0x3d5c163a	0.053732134
138	0xbc2bcd41	-0.010485948
139	0xbc804fba	-0.015663017
140	0x3c1583cb	0.00912566
141	0x3c813235	0.01577101
142	0xbda69185	-0.081332244
143	0xbd43700a	-0.04771427
144	0xbd68cb76	-0.05683466
145	0xbcd62f2a	-0.026145536
146	0xbaa72a61	-0.0012753719
147	0x3d3dcc1b	0.04633723
148	0x3c0db6c7	0.008649535
149	0x3ae9eee9	0.001784769
150	0xbd61fa81	-0.05517054
151	0xbda5fee8	-0.0810526
152	0xbd9c9f25	-0.07647542
153	0xbaeee58b	-0.0018226368
154	0xbd649c94	-0.055813387
155	0xbc94ced8	-0.018165037
156	0xbd8273cd	-0.063697435
157	0x3dbbe406	0.091743514
158	0xbb9046e5	-0.0044029825
159	0xbbd44fa6	-0.0064792214
160	0xbd4047bc	-0.04694341
161	0xbc0bb91a	-0.008528018
162	0xbd72ea42	-0.059305437
163	0xbcfd86f3	-0.030948138
164	0xbd746539	-0.059666846
165	0x3d0c836e	0.03430503
166	0x3d0e7f0f	0.03478914
167	0xbd85db62	-0.065359846
168	0x3dae4bc4	0.08510545
169	0xbae2cbba	-0.0017303147
170	0xbbc2ecd4	-0.0059486423
171	0x3cbb2b0c	0.022847675
172	0xbd50e1e8	-0.05099669
173	0xbc8584be	-0.016298648
174	0x3d1d2cd5	0.038372833
175	0xbd0802a2	-0.033205636
176	0xbd47769d	-0.048697103
177	0x3d5f8b11	0.054575983
178	0x3d95bd5a	0.073115066
179	0xbcd1183e	-0.025524255
180	0xbc9fd766	-0.01951189
181	0x3d7bec37	0.06150457
182	0x3dadea53	0.084919594
183	0x3c7b357d	0.015332577
184	0x3d045c35	0.032314498
185	0x3d1b2635	0.037878234
186	0x3d5fb8f2	0.054619737
187	0x3d651ac6	0.055933736
188	0x3d7ff46c	0.06248896
189	0x3d576300	0.052584648
190	0x3d39d29a	0.04536686
191	0xbd320e06	-0.043470405
192	0x3db6a4dd	0.08918164
193	0xbd9d0b98	-0.07668227
194	0x3bb5e31b	0.0055507547
195	0xbd8aadc7	-0.06771427
196	0xbaa8f54d	-0.0012890488
197	0xbcb2a2df	-0.021806179
198	0x3d00b471	0.031422082
199	0xbd8cee19	-0.06881351
200	0xbcc0ad0d	-0.023520017
201	0xbd966cc4	-0.07344964
202	0xbd98baca	-0.07457502
203	0x3dba7219	0.09103794
204	0xbd996fe9	-0.07492048
205	0xbbd43038	-0.0064754747
206	0x3d87f118	0.06637782
207	0x3d7eb53a	0.06218455
208	0xbc0e4d4a	-0.008685419
209	0xbd987d01	-0.074457176
210	0x3d776e18	0.060407728
211	0xbcff34b4	-0.03115306
212	0x3d2b6e8a	0.041853465
213	0x3c6eb61e	0.014569787
214	0x3d938e09	0.072048254
215	0x3da3ae35	0.07992212
216	0x3c9f8ce3	0.01947636
217	0x3c90609f	0.017624198
218	0xbd4e9ecd	-0.050444413
219	0xbcdf155d	-0.027231866
220	0x3b35943f	0.002770677
221	0x3bb788c5	0.005601021
222	0x3ba5b702	0.0050572166
223	0x3c4e58a7	0.012594379
224	0x3d304c0f	0.043041285
225	0xbd50d0a4	-0.050980225
226	0x3c58b2d3	0.013226229
227	0x3d25d8b5	0.04048987
228	0xbd024f61	-0.031813983
229	0x3d81d4a4	0.06339386
230	0xbdba6f0e	-0.09103213
231	0x3cdf3a06	0.027249347
232	0x3d5a51e4	0.053300753
233	0x3da64a24	0.0811961
234	0x3d9e9689	0.07743556
235	0x3d85d243	0.06534245
236	0x3d97adb2	0.074061766
237	0x3d40ead4	0.04709895
238	0xbd5003f5	-0.050785024
239	0xbd875f05	-0.066099204
240	0x3cb51132	0.022102926
241	0x3c977e8e	0.018492963
242	0x3d0ce73a	0.034400202
243	0xbd7ac1a3	-0.061219823
244	0x3c91aee6	0.017783593
245	0xbc67ed36	-0.014155677
246	0xbcc78a45	-0.024357924
247	0x3db58b0a	0.0886441
248	0xbd816c4d	-0.06319485
249	0xbc5d6877	-0.013513676
250	0x3d60fbeb	0.054927748
251	0xbd0686c2	-0.03284336
252	0xbd4d503f	-0.050125357
253	0xbd2e1578	-0.042500943
254	0xbc6dfd20	-0.014525682
255	0xbc97daa9	-0.018536882

layers.0.bias f4 [16]
0	0xbd4c0cbd	-0.049816836
1	0xbdae64f1	-0.08515347
2	0x3db26b78	0.08711904
3	0xbd085584	-0.03328468
4	0x3d54e1e8	0.051973253
5	0x3d56b7bd	0.05242132
6	0x3d701791	0.058616225
7	0x3c04e886	0.0081120785
8	0xbd118f80	-0.035537243
9	0xbd8f8b17	-0.07008951
10	0x3b997a9e	0.0046838066
11	0x3d99cfad	0.07510314
12	0xbcb04ea3	-0.021521872
13	0x3d8abf12	0.06774725
14	0xbcd4b0c5	-0.025963197
15	0xbcb8c6ea	-0.022555787

layers.2.weight f4 [8, 16]
0	0xbe0e4744	-0.13894373
1	0x3e707b8e	0.23484632
2	0x3da25700	0.0792675
3	0xbe286ba8	-0.16447318
4	0x3e276dfa	0.16350546
5	0xbd0bd1a0	-0.03413546
6	0xbe1e8404	-0.15480047
7	0x3e0515ae	0.12996551
8	0x3e2fc776	0.17165932
9	0xbe74ecaa	-0.23918405
10	0x3e4a7b8c	0.19773692
11	0xbe37c43a	-0.17945948
12	0x3dc71a28	0.09721786
13	0xbdf18894	-0.11793628
14	0xbe573584	-0.21016508
15	0xbd5abd60	-0.05340326
16	0x3e23da1e	0.16001174
17	0x3e78e7e2	0.24307206
18	0xbe303666	-0.17208251
19	0x3e5e5aa6	0.21714267
20	0xbe2c20dc	-0.1680941
21	0xbdab6e60	-0.08370662
22	0xbe14d0d0	-0.1453278
23	0x3d617040	0.05503869
24	0x3e68adc2	0.22722533
25	0xbdfa5fe8	-0.12225324
26	0xbd1d0880	-0.038338184
27	0xbc47a460	-0.012185186
28	0xbe4cac38	-0.19987571
29	0xbe672b8e	-0.22575209
30	0xbda29550	-0.07938635
31	0xbe1e5d38	-0.15465248
32	0x3d97a5bc	0.07404658
33	0x3e6526ac	0.22378033
34	0x3e7d52d4	0.24738628
35	0xbc0d5380	-0.008625865
36	0x3e5d438a	0.21607795
37	0xbd2fe2b8	-0.042940825
38	0xbde839fc	-0.11339185
39	0xbdc50638	-0.09620327
40	0xbe35b44e	-0.17744562
41	0x3e350b1e	0.17680022
42	0xbe5ae910	-0.21377969
43	0xbe6b8d5c	-0.23003143
44	0xbe791712	-0.24325207
45	0xbdd40818	-0.10353106
46	0x3e0b8e0e	0.13628408
47	0xbe3f6380	-0.186903
48	0x3e00a746	0.1256381
49	0x3e7220b8	0.23645294
50	0xbe569130	-0.20953822
51	0xbe643738	-0.2228669
52	0xbe03b916	-0.12863573
53	0xbe3f362c	-0.18673009
54	0x3e687de2	0.2270427
55	0xbd5d4148	-0.054017335
56	0x3e647564	0.22310406
57	0x3d15fa28	0.03661552
58	0xbe149fbc	-0.14514059
59	0x3dc066ec	0.09394631
60	0xbe562e5e	-0.20916125
61	0xbb5bb900	-0.0033527017
62	0x3e5d64b8	0.21620452
63	0xbe790104	-0.24316794
64	0x39ca8000	0.0003862381
65	0xbe2dc0dc	-0.16968101
66	0x3e4ddef8	0.20104587
67	0x3e0a2cd0	0.13493657
68	0x3df8fdc8	0.1215778
69	0xbdfdf044	-0.12399343
70	0xbe35bafe	-0.17747113
71	0xbe492bfa	-0.19645682
72	0x3e2e9310	0.17048287
73	0xbe4fc5b8	-0.20290267
74	0x3e1f7174	0.15570623
75	0x3c3bbbe0	0.011458367
76	0x3e252068	0.16125643
77	0xbe16d606	-0.14730081
78	0xbd3dae38	-0.046308726
79	0x3d810e0c	0.06301507
80	0xbdeae5d8	-0.114696205
81	0x3e461552	0.1934407
82	0x3e0489de	0.12943217
83	0x3d8991e4	0.067172796
84	0x3e30e914	0.17276412
85	0x3c3606e0	0.011110038
86	0xbdd3e8cc	-0.10347137
87	0xbe7c0c1c	-0.24613994
88	0x3e2d323e	0.16913697
89	0xbd656b38	-0.056010455
90	0xbdc375f4	-0.09543982
91	0xbd151aa8	-0.036402375
92	0x3e6ea66e	0.23305675
93	0xbd2a94e0	-0.041645885
94	0xbcf04eb0	-0.029334396
95	0xbc37b820	-0.011213332
96	0xbd7dd6b8	-0.06197235
97	0xbe2051b4	-0.15656167
98	0xbdc18e38	-0.09450954
99	0xbdc4a3e8	-0.09601575
100	0xbe548b0c	-0.20756167
101	0xbe093e30	-0.13402629
102	0x3e02cc0a	0.12773147
103	0x3dd8a414	0.105781704
104	0x3db094c0	0.08622122
105	0x3de7bf90	0.113158345
106	0x3d462fb8	0.048385352
107	0xbd837f28	-0.064207375
108	0xbd6cfe38	-0.05785963
109	0x3defa740	0.11701822
110	0xbde54310	-0.11194432
111	0xbdec3b88	-0.11534792
112	0xbe573c9a	-0.21019211
113	0xbcaaec30	-0.020864576
114	0xbe641b76	-0.222761
115	0xbd8faad4	-0.07015005
116	0xbe13d65c	-0.1443724
117	0x3e56430c	0.20924014
118	0xbe6bded4	-0.23034221
119	0xbda0bc50	-0.07848418
120	0xbd938254	-0.072025925
121	0xbcff9f50	-0.031203896
122	0xbe2d6396	-0.1693252
123	0x3e54f81c	0.20797771
124	0x3e2c4da0	0.16826487
125	0xbe4abc34	-0.19798356
126	0xbe58d6c4	-0.21175677
127	0xbd3a0950	-0.045419037

layers.2.bias f4 [8]
0	0x3db6848c	0.08912
1	0xbe25f7ce	-0.16207811
2	0xbe7ed7ae	-0.24886963
3	0xbe19da9e	-0.15024802
4	0xbe09910c	-0.13434237
5	0xbe365f9c	-0.1780991
6	0x3dee6c0c	0.11641702
7	0xbe2a3e38	-0.16625297

layers.4.weight f4 [1, 8]
0	0xbe8dc228	-0.27687192
1	0xbe1501b1	-0.14551426
2	0xbea6d433	-0.3258377
3	0x3c73a698	0.014871262
4	0x3e45ea93	0.19327764
5	0x3dcd5d5e	0.10027574
6	0x3e164625	0.14675196
7	0xbea82f8f	-0.32848784
