dm-pytorch/c1/models/model.ckpt (torch, 10183 bytes, 5 tensors)

layers.0.weight f4 [16, 117]
0	0xbe8ebcb4	-0.27878344
1	0x3db30d29	0.087427445
2	0x3d7b0785	0.061286468
3	0xbb49819f	-0.0030747426
4	0x3da1b061	0.0789497
5	0x3c98f2ee	0.018670525
6	0xbcb36df8	-0.021903023
7	0x3d0b656f	0.03403228
8	0x3d2e0854	0.04248841
9	0x3c5702ab	0.013123195
10	0xbc916592	-0.017748628
11	0xbc86bcba	-0.016447414
12	0xbc87c3d3	-0.016572868
13	0xbc6ad6f7	-0.014333478
14	0x3ca961d1	0.020676525
15	0x3c5a443d	0.013321933
16	0x3d459814	0.048240736
17	0x3cac4d74	0.021033026
18	0x3db7f0e0	0.0898149
19	0x3d88e93a	0.066851094
20	0x3d8a0373	0.06738939
21	0xbd6cf481	-0.057850365
22	0x3d85b595	0.06528775
23	0x3d96a939	0.073564954
24	0x3d780b70	0.060557783
25	0xbd2d16a6	-0.042257927
26	0x3d523b87	0.0513263
27	0x3d9117ac	0.07084593
28	0xbdb6db19	-0.08928508
29	0x3d841c68	0.064507306
30	0x3d634520	0.055485845
31	0xbda7533e	-0.08170174
32	0xbc4674f1	-0.012112842
33	0xbced0103	-0.028931146
34	0xbc6e4285	-0.014542227
35	0x3d203d64	0.039121047
36	0xbcbf282d	-0.023334587
37	0xbd927ea7	-0.07153063
38	0x3d1b0b22	0.037852414
39	0x3d4f148e	0.05055671
40	0xbc898228	-0.016785696
41	0x3db6f507	0.08933454
42	0xbcce7c78	-0.025205836
43	0xbd8d0207	-0.06885152
44	0xbd905365	-0.07047156
45	0xbda3300f	-0.07968151
46	0x3d819ae6	0.06328373
47	0xbcf68742	-0.030093793
48	0x3d0d7305	0.03453352
49	0xbd85f95c	-0.06541702
50	0xbd85a954	-0.065264374
51	0x3d8a39c6	0.06749301
52	0x3d09e4fc	0.033665642
53	0xbd200da8	-0.039075524
54	0x3d44704c	0.047958657
55	0xbd5a12a1	-0.053240422
56	0xbc072bbd	-0.008250174
57	0xbd87431f	-0.06604599
58	0x3c85998f	0.016308574
59	0xbc7074ee	-0.014676316
60	0xbd917b5d	-0.07103608
61	0xbda14406	-0.078743026
62	0xbcf79264	-0.030221172
63	0x3c52b48f	0.012860431
64	0xbd37b994	-0.044854715
65	0xbd8b41ef	-0.06799685
66	0x3d43508c	0.047684237
67	0x3ca284b6	0.019838672
68	0x3db176f5	0.086652674
69	0x3d95ab24	0.07308033
70	0x3d28e540	0.041234255
71	0x3d69e097	0.05709895
72	0xbd98600e	-0.07440196
73	0xbd606b21	-0.054789666
74	0x3d6336ae	0.05547207
75	0x3db392d4	0.087682396
76	0x3d761281	0.06007624
77	0xbd245e25	-0.040128846
78	0x3d7c80a9	0.061646137
79	0xbdc686f6	-0.096937105
80	0x3d0227bb	0.03177617
81	0xbca30e45	-0.019904265
82	0x3d6cd9e6	0.05782499
83	0x3da9c6b0	0.0828985
84	0x3dae5707	0.08512693
85	0x3db160f2	0.08661069
86	0x3d5ee5a3	0.054418217
87	0xbcc97430	-0.024591535
88	0xbb94e39e	-0.0045437356
89	0xbca9e5d2	-0.02073947
90	0x3d64c3d2	0.05585081
91	0x3aeaf939	0.0017927057
92	0xbd49bb25	-0.04925074
93	0xbd3d07d2	-0.046150036
94	0xbc87b451	-0.016565474
95	0x3d00e342	0.03146673
96	0x3d930ee9	0.07180578
97	0x3c3b496e	0.011431081
98	0xbd88132a	-0.0664428
99	0x3d478aba	0.048716284
100	0xbd44f37e	-0.048083775
101	0x3d544ab8	0.05182907
102	0x3d4ab12b	0.049485367
103	0x3bc69257	0.0060599255
104	0xbbe77fb6	-0.007064785
105	0x3cb20524	0.021730967
106	0x3d1e2a54	0.038614586
107	0x3d961df2	0.0732993
108	0xbd27104b	-0.040787023
109	0x3d836afe	0.064168915
110	0x3b1d10c8	0.0023966301
111	0x3ca0504d	0.01956954
112	0xbd8c5439	-0.06852002
113	0x3c03dc90	0.008048192
114	0x3daab47c	0.08335206
115	0x3d2c4765	0.042060275
116	0xba56899b	-0.0008183957
117	0xbc26e62b	-0.010186712
118	0x3cb92010	0.022598296
119	0x3d9557a1	0.072921045
120	0x3db55ff7	0.088561945
121	0xbbba35a3	-0.0056826635
122	0x3c94ced0	0.018165022
123	0xbc220276	-0.009888282
124	0x3d4bcbad	0.049754787
125	0xbd320bd7	-0.043468323
126	0x3d6b0757	0.057380047
127	0x3c8898d7	0.016674442
128	0xbb8b88cc	-0.004258251
129	0x3ca9c612	0.02072433
130	0x3d85faea	0.06541999
131	0xbcf3df1e	-0.029769477
132	0xbdbba3f8	-0.09162134
133	0xbb3f5cf2	-0.0029199687
134	0xbd923bd2	-0.07140316
135	0x3d775d8d	0.06039195
136	0x3dbc0447	0.09180503
137	0x3ccddbd6	0.02512924
138	0x3dbc6660	0.09199214
139	0x3d785436	0.060627185
140	0xbd15d2b2	-0.036577888
141	0x3d99aa43	0.07503178
142	0xbda9643b	-0.082710706
143	0xbd98611d	-0.07440398
144	0xbd4bd230	-0.049760997
145	0xbd16d4d8	-0.036824077
146	0x3c4829cd	0.012216997
147	0x3d119a44	0.03554751
148	0x3dbbbc67	0.09166794
149	0xbbca59a3	-0.0061752363
150	0xbd52eecb	-0.051497262
151	0x3ce7dc4c	0.028303288
152	0x3c0cef5c	0.00860199
153	0xbd6feb9e	-0.05857431
154	0xbc1e0762	-0.009645315
155	0xbd074d1f	-0.033032533
156	0x3d53697d	0.051614273
157	0x3dd95442	0.10611774
158	0x3dcbe93c	0.09956595
159	0x3c34b68f	0.0110298535
160	0xbce0ee09	-0.027457254
161	0x3db73b0f	0.089468114
162	0x3c5cf54e	0.01348622
163	0x3cbb0171	0.022827836
164	0xbd8f1d70	-0.06988037
165	0xbc7b73b2	-0.015347408
166	0x3cf90408	0.03039743
167	0x3db428e1	0.087968595
168	0xbdb22050	-0.08697569
169	0xbcccc657	-0.02499692
170	0x3d06021d	0.03271686
171	0xbcf31582	-0.029673342
172	0xbd02f12c	-0.03196828
173	0x3cacc7b3	0.021091318
174	0x3d869507	0.065713935
175	0x3cee53f4	0.029092766
176	0x3d89f6b9	0.06736512
177	0x3d6bdae8	0.057581812
178	0xbc292f85	-0.010326271
179	0xbc1742e1	-0.009232254
180	0x3d3affb4	0.045654014
181	0x3c540b26	0.012942111
182	0x3d378adc	0.04481016
183	0xbca4b7e0	-0.02010721
184	0xbd51c12c	-0.051209614
185	0x3c8a4578	0.016878828
186	0x3de60dd4	0.11233106
187	0xbd648582	-0.055791385
188	0xbcbf6599	-0.023363875
189	0x3d190bae	0.037364654
190	0x3ab7a8ad	0.0014012061
191	0x3d366a86	0.044535182
192	0xbd0d8bb9	-0.034557078
193	0xbc9205b2	-0.017824981
194	0x3ce6f844	0.028194554
195	0x3ce7e528	0.028307512
196	0xbcd3f0fe	-0.02587175
197	0xbcfe6a0b	-0.031056425
198	0x3d76c2a7	0.06024423
199	0x3d891377	0.06693166
200	0x3d907c61	0.070549734
201	0x3d981b56	0.07427089
202	0x3e0d22da	0.13782826
203	0x3b282688	0.0025657732
204	0xbb24d68b	-0.0025152292
205	0x3abf5e3d	0.0014600229
206	0x3e073eb5	0.13207515
207	0x3cda8b15	0.026677648
208	0x3baeb2c1	0.0053313677
209	0x3db854cd	0.090005495
210	0xbdc76f0e	-0.09737979
211	0x3da10671	0.07862557
212	0xbd187f84	-0.037230983
213	0xbd8686d9	-0.06568689
214	0xbd46eea4	-0.04856743
215	0x3dc87ac8	0.09789044
216	0x3bda6bbe	0.006665676
217	0xbda5a705	-0.08088497
218	0x3d108279	0.03528068
219	0x3cc6c508	0.024263874
220	0x3d8d6bc2	0.06905319
221	0x3de2daf9	0.11076922
222	0x3d5a45c8	0.053289205
223	0x3bd721c6	0.0065653054
224	0xbcfd907b	-0.030952683
225	0x3d96960f	0.0735284
226	0x3cec3de4	0.028838105
227	0xbd76928d	-0.060198355
228	0x3da0b768	0.07847482
229	0x3d87d0ff	0.0663166
230	0x3cf8bb41	0.030362727
231	0x3d8b0454	0.06787935
232	0xbd9f09cb	-0.0776554
233	0x3c9bc698	0.019015595
234	0xbd3b3d5a	-0.045712806
235	0xbda6d95a	-0.08146925
236	0xbc82b68e	-0.01595619
237	0xbcf3b4c5	-0.029749284
238	0x3d3cfa8e	0.046137385
239	0x3d95c3d3	0.07312741
240	0x3d90a554	0.07062784
241	0xb8b5de64	-8.672176e-05
242	0xbd0a9cca	-0.033840932
243	0x3d529dde	0.051420085
244	0xbd9b0ed3	-0.07571187
245	0x3bb32703	0.005467297
246	0xbd70fd45	-0.058835287
247	0x3bb2cf21	0.0054568206
248	0xbd71bc3b	-0.0590174
249	0xbc3834d0	-0.01124306
250	0xbd23f70a	-0.040030517
251	0x3a1f1dd4	0.00060698134
252	0x3b71b4e0	0.0036881492
253	0xbd9286ef	-0.07154643
254	0x3d403c7e	0.04693269
255	0x3d9d562d	0.07682452

layers.0.bias f4 [16]
0	0x3ca2ffb7	0.019897325
1	0x3d84b7cd	0.0648037
2	0xbda8d27e	-0.08243273
3	0xbd5a8935	-0.053353507
4	0xbc6e7505	-0.014554267
5	0xbdb64b8c	-0.08901128
6	0xbdb19fa3	-0.086730264
7	0xbd8f3fb9	-0.06994576
8	0x3d74f3f9	0.059802983
9	0xbc4b1720	-0.01239565
10	0xbda96528	-0.08271247
11	0xbd7372d1	-0.05943567
12	0x3d3ffe72	0.046873517
13	0x3d55ac32	0.05216617
14	0x3d838832	0.064224616
15	0xbcf2a6ce	-0.029620554

layers.2.weight f4 [8, 16]
0	0x3d528470	0.051395833
1	0x3d3ab768	0.045585066
2	0xbdb004e6	-0.08594684
3	0xbd5897d0	-0.052879155
4	0x3d549e35	0.05190869
5	0x3e36d8b2	0.178561
6	0xbdad6833	-0.0846714
7	0x3e0c8472	0.13722399
8	0x3d9045f7	0.07044595
9	0xbe48e236	-0.19617543
10	0x3de80ebc	0.11330935
11	0xbe88dac9	-0.2672942
12	0xbe181c96	-0.14854655
13	0xbd6ba28d	-0.057528067
14	0xbde50c86	-0.11184029
15	0x3d6f741a	0.058460332
16	0xbd31008e	-0.04321342
17	0x3c9d878b	0.019229671
18	0x3e4d0dc6	0.20024785
19	0x3e742e46	0.23845777
20	0x3d7387c5	0.05945565
21	0x3e3c7c9e	0.18406913
22	0x3e2d45cc	0.16921157
23	0xbe32db01	-0.17466356
24	0xbd8e802c	-0.069580406
25	0xbdef21a8	-0.11676341
26	0x3e0df5e8	0.13863337
27	0xbdba9343	-0.09110119
28	0xbbb69b40	-0.0055727065
29	0x3cb8006b	0.022461137
30	0xbd5d52d6	-0.054034077
31	0x3e1e53d4	0.15461665
32	0x3e4351bd	0.1907415
33	0xbd0e28c2	-0.03470684
34	0x3d4dfb22	0.050288327
35	0xbe182215	-0.14856751
36	0x3d204821	0.039131287
37	0x3df9478d	0.1217185
38	0xbe5b6c3a	-0.21428004
39	0x3defa144	0.11700681
40	0x3de7628b	0.112980925
41	0x3d70fb78	0.05883357
42	0x3e7933aa	0.24336115
43	0x3dd4a904	0.103838
44	0xbca62f40	-0.020286202
45	0xbe6c3852	-0.2306836
46	0xbe23e7de	-0.16006419
47	0x3e550723	0.20803504
48	0x3e132fa6	0.14373645
49	0x3e665936	0.22494969
50	0x3db753b7	0.08951514
51	0xbe29c2e5	-0.16578253
52	0x3e413dc1	0.18871213
53	0x3c75372d	0.014966768
54	0xbda0e769	-0.07856638
55	0x3e65db1f	0.2244687
56	0x3e5b6491	0.21425082
57	0x3ce61be0	0.028089464
58	0x3df91674	0.12162486
59	0xbd10afa8	-0.03532377
60	0xbda02484	-0.07819465
61	0x3e5fd2e5	0.21857794
62	0xbd907ea1	-0.070554025
63	0x3e98d261	0.29848006
64	0x3d63c2aa	0.055605568
65	0xbc4eaab9	-0.012613946
66	0x3bbb1b20	0.0057100207
67	0x3e635428	0.22200072
68	0xbe4c722e	-0.19965431
69	0xbe0648cf	-0.13113712
70	0x3d8a283e	0.06745957
71	0xbd9a2201	-0.07526017
72	0xbddbdeb1	-0.107358344
73	0x3b139e80	0.0022524893
74	0xbe34d66c	-0.1765992
75	0x3dea5c1f	0.11443352
76	0x3d205408	0.03914264
77	0xbd735e8f	-0.05941635
78	0xbe0bead2	-0.13663796
79	0xbe46092e	-0.1933944
80	0xbe626139	-0.221074
81	0x3dcd3627	0.10020094
82	0x3e0332b3	0.12812309
83	0x3e41a392	0.18910053
84	0x3e2663e2	0.1624904
85	0x3de373b2	0.111060515
86	0x3dfb8c6c	0.12282643
87	0xbdaf2a25	-0.0855296
88	0xbe14418d	-0.1447813
89	0xbe1ec9fc	-0.15506738
90	0x3e53c1e6	0.20679435
91	0x3e0f594f	0.13998912
92	0xbd170288	-0.03686765
93	0xbbbf11e6	-0.005830991
94	0xbe19c05e	-0.15014789
95	0x3d32c44d	0.04364424
96	0x3e4547c2	0.19265655
97	0xbe426511	-0.18983866
98	0x3e411a8f	0.18857788
99	0xbe52625c	-0.20545334
100	0x3ddb7d0e	0.10717212
101	0x3e0d3237	0.13788687
102	0xbe274e77	-0.16338526
103	0xbe8cc538	-0.27494216
104	0xbb43c3da	-0.0029871375
105	0xbda34ea0	-0.07973981
106	0xbd1e7fa0	-0.03869593
107	0xbe97fc58	-0.2968471
108	0x3e7f3856	0.24923834
109	0x3e44c41e	0.19215438
110	0x3c6ab6d6	0.014325818
111	0xbd7eef74	-0.06224008
112	0x3e7ad4e8	0.2449528
113	0x3df8cddb	0.12148639
114	0xbde7507c	-0.11294648
115	0xbddec170	-0.10876739
116	0xbdecc47d	-0.11560915
117	0xbd64cc30	-0.05585879
118	0xbe3a073a	-0.18166819
119	0x3e362967	0.17789231
120	0xbd979630	-0.07401693
121	0x3e120226	0.14258632
122	0x3e071efe	0.13195416
123	0x3d13a1c7	0.036042955
124	0xbe120662	-0.14260247
125	0x3e3c3a56	0.18381628
126	0x3e8d9282	0.2765084
127	0xbc8ee551	-0.017443331

layers.2.bias f4 [8]
0	0x3e79a9c6	0.2438117
1	0xbde3725f	-0.11105799
2	0x3e5e15b3	0.21687965
3	0x3e6e3845	0.23263653
4	0x3d5691ad	0.05238502
5	0xbe4b361b	-0.19844858
6	0x3e2579c1	0.16159727
7	0x3e13b06f	0.14422773

layers.4.weight f4 [1, 8]
0	0x3e4557a7	0.19271718
1	0xbdf3c5c7	-0.119029574
2	0x3d963f1e	0.073362574
3	0x3ebdd679	0.37077692
4	0xbe46c391	-0.1941054
5	0x3b9f5155	0.0048619905
6	0xbe181e5c	-0.14855331
7	0x3e269949	0.16269411
